312-李友国/weekTwo/model.pth (torch, 1503 bytes, 2 tensors)

linear.weight f4 [10, 10]
00000000: 3f69 8ec1 b3fe 9d3f a880 873f 8bc4 593f
00000010: 2f30 a13f 308b c33f 0aed b83f 5fb5 b83f
00000020: 98e7 7c3f 880b 6d3f 3706 71c1 8d64 af3f
00000030: e888 9c3f 3f3b 823f 8d6d a33f ee38 b13f
00000040: 6fcf a33f 9499 a53f 5675 b83f 3615 f03f
00000050: b443 49c1 50a0 ac3f 0845 cc3f d083 a13f
00000060: 8084 b23f da91 653f dc53 cb3f f28e c83f
00000070: b9c1 ae3f 947a ac3f 0421 26c1 2ded d33f
00000080: 89ac c23f 4770 be3f 5070 8c3f 10ba ad3f
00000090: cf61 793f ffb2 913f 6241 ad3f f077 9b3f
000000a0: 36c9 65c0 392c c93e c890 973c 0ba9 083e
000000b0: 22e5 073f f1ae 9c3f 0180 5e3f 6cce 4a3f
000000c0: e010 ecbd f776 7a3e a3c1 0640 09e8 d4be
000000d0: c76b edbe 1362 e7bd f633 1e3e 8c02 8bbe
000000e0: 3c3e 5f3d bb08 25bf 7f01 e0be ad45 19bd
000000f0: 1752 0641 9813 a9bf de13 98bf f15a 40bf
00000100: 4094 23bf c86d 8ebf 467d 8ebf 0c3e 87bf
00000110: 21fa 33bf 1a94 3bbf 181e 1a41 266e c8bf
00000120: 5167 abbf 0d82 b5bf fb17 bcbf 23fe 9cbf
00000130: f242 90bf c5f1 63bf b2e9 bcbf 1538 8abf
00000140: 97a6 2b41 142d afbf 2473 84bf c5e0 92bf
00000150: e966 c9bf 25c6 e0bf 45ee e8bf ae1d 90bf
00000160: ce76 87bf 0517 cebf 236a 2a41 fe73 b5bf
00000170: ee6c a9bf feb4 8dbf fdb9 c6bf 98ac afbf
00000180: eab2 9abf 1ee8 e5bf 5796 a8bf 80cb b8bf
-17.80139 1.2343353 1.0586138 0.85065526 1.259283 1.5276852 1.4447339 1.443035
0.98790884 0.9259572 -15.064017 1.3702561 1.222928 1.017433 1.2767807 1.3845499
1.2797679 1.2937493 1.4410808 1.8756473 -12.579029 1.3486423 1.5958567 1.2618351
1.3946686 0.89675677 1.5884967 1.5668623 1.365287 1.3474908 -10.38306 1.6556755
1.5208904 1.4878014 1.0971775 1.3572407 0.9741487 1.138275 1.3535578 1.2145977
-3.590406 0.39291552 0.018501654 0.13345735 0.53084004 1.2240888 0.8691407 0.79221225
-0.11526656 0.24459444 2.1055686 -0.4158328 -0.4637129 -0.11298003 0.15449509 -0.2715038
0.05450271 -0.64466447 -0.4375114 -0.037419964 8.395041 -1.3209105 -1.1881063 -0.75138766
-0.63898087 -1.1127253 -1.113198 -1.056581 -0.7030354 -0.7327286 9.632347 -1.5658615
-1.3390905 -1.4180313 -1.4694818 -1.2265056 -1.127043 -0.89040786 -1.4758818 -1.0798365
10.728171 -1.3685632 -1.0347638 -1.1474844 -1.5734531 -1.7560469 -1.8197714 -1.1259058
-1.0583131 -1.6100775 10.650912 -1.4176023 -1.3236368 -1.107086 -1.5525509 -1.3724546
-1.208585 -1.7961462 -1.317088 -1.4437103

linear.bias f4 [10]
00000000: 1452 5ebf 5ce5 5bbf 6e19 cfbe 3e6b f5bd
00000010: 5b3f e13e 4bf2 953e d1d0 103f fe03 083f
00000020: 299d 1abf f740 a9bf
-0.8684399 -0.8589685 -0.4044909 -0.119833454 0.4399365 0.29286417 0.5656863 0.5313109
-0.6039606 -1.3222951
