113-马世耀/week2/model/model.pth (torch, 3475 bytes, 4 tensors)

linear.0.weight f4 [50, 5]
0	0xbec3f499	-0.3827255
1	0xbf44d4d3	-0.76887244
2	0x3ea7347d	0.32657233
3	0xbf23ee5a	-0.6403557
4	0xbc9436c4	-0.01809252
5	0x40385f35	2.880811
6	0xbea8f157	-0.32996628
7	0x3f4e7567	0.8064789
8	0xc00c6a58	-2.1939907
9	0xbf99218d	-1.1963364
10	0x3f975bf8	1.1824942
11	0xc03aa778	-2.9164715
12	0x3f329eb0	0.6977339
13	0x3e9aa565	0.3020431
14	0x3f46a018	0.77588034
15	0x3d8ab29e	0.0677235
16	0x3fcb0648	1.5861292
17	0xc00f4e8b	-2.239169
18	0xbfc7b94f	-1.5603427
19	0x3f601ca0	0.8754368
20	0x400170c8	2.0225086
21	0x3e3c0183	0.18359952
22	0xc097efb8	-4.7480125
23	0x3f12726d	0.5720585
24	0x3fb45c77	1.4090718
25	0x4073fc77	3.8122842
26	0xbea06edd	-0.31334582
27	0xc064d86e	-3.5757098
28	0x3efe35c7	0.49650404
29	0xbe871489	-0.26382855
30	0xbe8f6e80	-0.28013992
31	0x3fe2152f	1.7662715
32	0xbf265864	-0.64978623
33	0xbf9c57e6	-1.2214324
34	0xbf9b744f	-1.214487
35	0xc03f997d	-2.9937432
36	0x4052796f	3.2886617
37	0xbdaa9572	-0.08329286
38	0xbd563751	-0.052298848
39	0xbf0426f3	-0.5162193
40	0x3fd20d08	1.6410227
41	0x3eea2f39	0.45739153
42	0x3f2b4e46	0.6691631
43	0xc09ff6ea	-4.998891
44	0x3f759fd0	0.9594698
45	0x40196aca	2.397143
46	0x3ed53cc9	0.41647938
47	0x3c46f2c8	0.0121428445
48	0xbf426ad0	-0.7594423
49	0xbff3dbcf	-1.9051455
50	0x4081531a	4.041394
51	0xc07a3500	-3.9094849
52	0x3e1c17f9	0.1524352
53	0xbe783a1b	-0.24240915
54	0xbc8fd254	-0.017556347
55	0x3ff961c7	1.9482964
56	0x3f23b8c1	0.6395379
57	0x3d0c0541	0.034184698
58	0x3f5b76c7	0.85728115
59	0xc0873864	-4.2256336
60	0xbcaffeaa	-0.021483738
61	0x3de6e7a3	0.1127465
62	0x3e0b75ef	0.13619207
63	0xbec97a9b	-0.39351353
64	0xbd3daaa6	-0.04630532
65	0xbeead527	-0.45865747
66	0xbf1a4320	-0.60258675
67	0xbf087467	-0.53302616
68	0xbf84de25	-1.0380293
69	0xbee887fd	-0.4541625
70	0xbd8d20c2	-0.06891014
71	0xbf9424c6	-1.1573722
72	0x3d71aded	0.05900376
73	0xbf9b0c5d	-1.2113148
74	0xbecff28a	-0.4061473
75	0xc00e8dc5	-2.227403
76	0xbf619fcc	-0.88134456
77	0xbef45534	-0.47721255
78	0x404d4ae5	3.2076962
79	0xbeb8195b	-0.35956845
80	0xbfd65358	-1.6744184
81	0xbf6bfcdd	-0.92182714
82	0xbf1d4075	-0.6142648
83	0x3e1c677a	0.15273848
84	0xbf3c0010	-0.73437595
85	0xbfffcdc5	-1.9984671
86	0x401b6277	2.4278848
87	0xbe57c1d9	-0.21070041
88	0xbe88fbd1	-0.2675462
89	0xbea7aec7	-0.32750532
90	0xbec4c3ff	-0.38430783
91	0xbcea804e	-0.028625634
92	0xbe676542	-0.2259722
93	0xbeb906f7	-0.36138126
94	0xbf63f07a	-0.89038813
95	0xbf5bc8a5	-0.85853034
96	0xbfab3615	-1.337588
97	0xbf589559	-0.84602886
98	0x401109bd	2.2662194
99	0xbf26aa45	-0.6510356
100	0x4051774d	3.2729065
101	0xc04a8c25	-3.1648037
102	0xbcfb3cd1	-0.030668648
103	0x3e834a35	0.25642553
104	0xbee1a1fe	-0.44068903
105	0xbf1e2d72	-0.61788094
106	0xbcae427d	-0.021271938
107	0xbf013eea	-0.50486624
108	0xbe2b8271	-0.16748978
109	0xbdd7cdf7	-0.105373316
110	0xbcd6f917	-0.026241822
111	0x3ee58144	0.44825184
112	0xbf2b6c56	-0.6696218
113	0xbdc5a775	-0.096510805
114	0xbf40675f	-0.7515773
115	0xbf40d357	-0.7532248
116	0x3accff47	0.0015640043
117	0x3be05624	0.0068462063
118	0x3c756fe4	0.01498029
119	0xbc60d150	-0.013721779
120	0xc01a011c	-2.4063177
121	0x3ddadd14	0.106866986
122	0x40131f15	2.298772
123	0xbca2f84b	-0.019893786
124	0xbe576158	-0.21033227
125	0x402832d6	2.6281028
126	0x3e3dc8b1	0.18533589
127	0xc01e191a	-2.470282
128	0xbe719b25	-0.23594339
129	0xbe0a9c7c	-0.13536257
130	0x4055c593	3.340184
131	0x3e836888	0.2566569
132	0xc04a9ba5	-3.1657498
133	0xbea6226c	-0.32448137
134	0xbda5ff04	-0.08105281
135	0xbf88bfe0	-1.0683556
136	0xbee3ce0e	-0.44493145
137	0xbf863b86	-1.0486915
138	0xbfad81a7	-1.3555192
139	0x3fb556d5	1.4167124
140	0xbf9e4e85	-1.2367712
141	0x3e2f4228	0.1711508
142	0x3d80814c	0.062746614
143	0x3d06d495	0.032917578
144	0x3e616a19	0.2201313
145	0x401a9a07	2.415651
146	0xc0a6523e	-5.1975393
147	0x3ed6bcbf	0.41940877
148	0x3f404d51	0.75117975
149	0x3f705745	0.9388316
150	0xbff777a9	-1.9333392
151	0xbf06193b	-0.5238225
152	0xbe6425b9	-0.22280015
153	0x402f09be	2.7349696
154	0xbe1d5db0	-0.1536777
155	0xbfb25381	-1.3931733
156	0xbf0f3c15	-0.5595105
157	0x3ec74af0	0.3892436
158	0x3f5584ea	0.83405936
159	0x3fae6bc8	1.3626642
160	0xc0d83eef	-6.7576823
161	0x3f1bab4c	0.60808253
162	0x3edfd0d5	0.43714014
163	0x3f487176	0.7829813
164	0x3e2abc40	0.16673374
165	0xc0439337	-3.0558603
166	0xbe717eb4	-0.2358349
167	0x403a1f2f	2.9081533
168	0x3d59ab55	0.05314191
169	0xbe0ffa1d	-0.14060254
170	0x405e5980	3.4742126
171	0x3ed182c6	0.40920085
172	0x3ebbdbef	0.36691234
173	0x3f04e587	0.5191273
174	0xc0b378c9	-5.6084943
175	0xbec4b2e3	-0.3841773
176	0x3e949b17	0.29024574
177	0x3eb8a961	0.36066726
178	0xbf072d02	-0.5280305
179	0xbfa160e1	-1.260769
180	0x3f5076ba	0.8143116
181	0x3f0aff94	0.5429623
182	0xbfae4173	-1.3613724
183	0xbe8cec7e	-0.2752418
184	0x3eeb807f	0.45996472
185	0x3c73a58c	0.014871012
186	0x3d50324f	0.050829228
187	0xbf667268	-0.9001832
188	0x3dfe394c	0.12413272
189	0xbea4bb62	-0.32174212
190	0x3f16d50d	0.5891884
191	0xbf91cb6f	-1.1390208
192	0x3bf23f58	0.007392805
193	0xc02a8c1a	-2.6648011
194	0x3fbb3862	1.4626582
195	0xc011c559	-2.2776701
196	0x3fac72f6	1.3472583
197	0xbf58393a	-0.8446232
198	0xbebe860f	-0.37211654
199	0x4015d29b	2.3409793
200	0xc005f5e7	-2.0931337
201	0xbef0dd38	-0.47043777
202	0xbdffa082	-0.12481786
203	0x3e9b7976	0.30366105
204	0x40021df8	2.0330791
205	0x3d1eba1a	0.0387517
206	0xc010c158	-2.2618008
207	0x3e8126a9	0.25224808
208	0x4007bb53	2.1208084
209	0xbf456b3e	-0.77116764
210	0xbf0d5f0c	-0.55223155
211	0x3f0e8957	0.55678314
212	0xbe940196	-0.2890746
213	0x3dae201b	0.085022174
214	0x3db694ba	0.08915086
215	0xbf811acd	-1.0086304
216	0x3e82c4e0	0.2554083
217	0xbeec3c87	-0.4613993
218	0xbfd58401	-1.6680909
219	0xbeb8128f	-0.3595166
220	0xbf90363d	-1.1266552
221	0x3f5b4ee3	0.85667247
222	0xbfe913a1	-1.8209115
223	0x3fb313aa	1.3990376
224	0x3ea97831	0.3309951
225	0x3d0be644	0.034155145
226	0xc00b70d4	-2.1787615
227	0x4001acee	2.0261798
228	0xbfcfa0b9	-1.6220924
229	0x3f7d07e7	0.98840183
230	0x3fd456eb	1.6589025
231	0xbf2b90f9	-0.67018086
232	0xbf0ec66b	-0.5577151
233	0xbf67bd5f	-0.9052333
234	0xbe5e2047	-0.21692
235	0xbf5c5de5	-0.8608077
236	0xbed7eb94	-0.4217192
237	0x3fa3588a	1.2761395
238	0xbde7a3f4	-0.113105685
239	0xbf7dc53b	-0.99129075
240	0x404426e5	3.064874
241	0xbdb4144f	-0.08792936
242	0x3cce2246	0.025162827
243	0xc03f2427	-2.9865816
244	0x3d60cd62	0.05488337
245	0xbeefbd81	-0.46824268
246	0xbf0d86ba	-0.552837
247	0xbebbe40d	-0.36697426
248	0x3d0d964b	0.03456716
249	0x3ec86fce	0.391478

linear.0.bias f4 [50]
0	0xbe5f4c10	-0.2180636
1	0x3e97923a	0.2960375
2	0xbf5459ea	-0.829497
3	0xbe7bff33	-0.2460907
4	0xbf13673b	-0.5757939
5	0x3e8c1fb9	0.27367952
6	0x3db872ed	0.09006295
7	0x3e98369c	0.29729164
8	0xbdffb72c	-0.12486109
9	0x3e06a364	0.13148266
10	0x3e061c3f	0.13096713
11	0xbe85e21a	-0.26149064
12	0xbeccf1c0	-0.4002819
13	0x00000000	0.0
14	0x00000000	0.0
15	0xb9a2087e	-0.00030905375
16	0x00000000	0.0
17	0x3d34c499	0.044132803
18	0x00000000	0.0
19	0x3d845e1e	0.06463264
20	0x3ebcea4e	0.3689751
21	0x00000000	0.0
22	0xbeabfb83	-0.33590326
23	0xbe1648f8	-0.14676273
24	0x3e6d6c36	0.2318581
25	0x3e80fa6d	0.2519106
26	0x3e73b530	0.23799586
27	0xbd38d2a5	-0.04512276
28	0xbe8ac367	-0.27102205
29	0xbecf2a63	-0.40462026
30	0xbe80f8ed	-0.25189915
31	0x3df826c8	0.12116772
32	0x3eda79dd	0.426711
33	0x3eed05a8	0.46293378
34	0xbe428d05	-0.18999107
35	0xbe494ea6	-0.19658908
36	0xbefa9ed2	-0.48949295
37	0xbe1f00cd	-0.15527649
38	0xbdc500b1	-0.096192725
39	0x3e87a25d	0.2649106
40	0x3eaa5d65	0.3327438
41	0xbefccc86	-0.4937479
42	0xbee4c498	-0.4468124
43	0xbe8b13bb	-0.2716349
44	0x3f0d153d	0.5511053
45	0xbcf13e97	-0.02944879
46	0xbe91b4a5	-0.28458133
47	0xbe0726d0	-0.131984
48	0x3dadfa80	0.08495045
49	0xbe787702	-0.24264148

linear.2.weight f4 [3, 50]
0	0x3e0320ef	0.12805532
1	0x3fcfacac	1.622457
2	0x3df1ac33	0.118004225
3	0xbf30a570	-0.6900244
4	0x3dddce61	0.10830379
5	0x400fe447	2.248308
6	0xbfa8d91b	-1.3191255
7	0xc0cabcf0	-6.3355637
8	0x3ea1677a	0.3152426
9	0x3f86e284	1.0537877
10	0x3ff93524	1.9469342
11	0xbec3c25b	-0.3823422
12	0x3dd178df	0.102281325
13	0x3d8c710f	0.06857502
14	0xbe95687b	-0.29181275
15	0xc0bdbb52	-5.9291162
16	0x3ede784d	0.43451157
17	0xc0262ce4	-2.59649
18	0xbc7d1e1f	-0.015449076
19	0xc044a181	-3.0723574
20	0x4009d5d7	2.1536767
21	0x3d6c0dd5	0.05763038
22	0x3e531c21	0.20616199
23	0xbf3652dd	-0.7122019
24	0xc09aabdc	-4.833479
25	0x3fee9687	1.8639687
26	0x3fe84b76	1.8148029
27	0xbfa43944	-1.2829976
28	0xbf31e529	-0.69490296
29	0x3f02fa40	0.511631
30	0xc03c947b	-2.9465625
31	0xc00346f4	-2.0512056
32	0xbf2ebd2a	-0.6825739
33	0xc0a2ef52	-5.091714
34	0x3e0a7807	0.1352235
35	0xbf122a24	-0.5709555
36	0x3d8732e4	0.066015035
37	0x3e9fb84b	0.31195292
38	0xbf6ea602	-0.9322206
39	0xc08337e7	-4.100574
40	0xc07e8bef	-3.9772909
41	0xbf1e3c97	-0.618112
42	0xbdef7846	-0.11692862
43	0x3e784cea	0.2424809
44	0xc0105c1f	-2.2556226
45	0xbfabe689	-1.3429729
46	0x3eb1b771	0.34710267
47	0xbeb82e7e	-0.3597297
48	0x3fa9c070	1.3261852
49	0xbd9bb772	-0.07603349
50	0xbedc5b6f	-0.43038508
51	0xc078c3d6	-3.8869529
52	0xbf98206f	-1.1884898
53	0xbf44659d	-0.7671755
54	0xc03df9ed	-2.9683793
55	0xc07616bc	-3.8451376
56	0x3e1a7e99	0.15087356
57	0x3fbea09e	1.4892766
58	0xc060b9e6	-3.5113463
59	0xc023abc5	-2.557359
60	0xc09ac559	-4.8365903
61	0xc015942b	-2.3371685
62	0x3e70d43c	0.23518461
63	0xbe1d0f40	-0.15337849
64	0x3e24138c	0.16023082
65	0x3f987394	1.1910272
66	0x3c8386c9	0.016055482
67	0x3f465c2b	0.7748439
68	0x3e89c715	0.269097
69	0x3f9be3e7	1.2178925
70	0xc091bf8c	-4.554632
71	0x3daa6243	0.08319523
72	0xbed41df5	-0.41429105
73	0x3ed29480	0.41128922
74	0x3fdde471	1.733534
75	0xc0834d82	-4.1032114
76	0xc066d2c6	-3.6066146
77	0x3fbf6c54	1.4954934
78	0x3f717814	0.9432385
79	0xc0724d7f	-3.78598
80	0x3f2f443e	0.68463504
81	0x3faed244	1.3657918
82	0x402c0626	2.6878753
83	0x3fe44de1	1.7836267
84	0xc0b43b38	-5.632229
85	0xbe027a41	-0.12741949
86	0xbf592f17	-0.8483748
87	0xbeab1fde	-0.3342275
88	0xbfa459cd	-1.2839905
89	0x3fa5ca00	1.295227
90	0x3fb884a2	1.4415476
91	0x3e117ea7	0.1420847
92	0x3dd56a2e	0.10420643
93	0x3c3d86b1	0.011567757
94	0x3faa24db	1.3292497
95	0xbde6258d	-0.11237631
96	0xbfb98542	-1.4493792
97	0x3eb9dc08	0.36300683
98	0xc0b72be1	-5.7241063
99	0xbde62dfc	-0.112392396
100	0x3de15fbd	0.11004589
101	0xbe9d515f	-0.30726144
102	0x3dfa7b1e	0.12230514
103	0x3f81b7c5	1.0134207
104	0x3ff86912	1.9407065
105	0xbe8f70da	-0.28015786
106	0x3f12510e	0.5715493
107	0x3f280392	0.6563045
108	0x3fdfe9b8	1.74932
109	0xbede95af	-0.43473575
110	0x3efa7b92	0.48922402
111	0x3f756b0f	0.95866483
112	0x3beb7e2c	0.0071866717
113	0xbd34affe	-0.04411315
114	0x3e11c77d	0.14236255
115	0x3f323d3d	0.6962469
116	0x3ea2abec	0.3177179
117	0x3f2bf5b4	0.6717179
118	0xbdbb9057	-0.0915839
119	0x3efcce7a	0.4937628
120	0xbe8d33c9	-0.2757857
121	0xbd66a4b0	-0.056309402
122	0x3dd71a79	0.10503096
123	0x3caa50dd	0.020790512
124	0x3d41f9b2	0.04735727
125	0xbea19dda	-0.31565744
126	0xbd99cb32	-0.075094596
127	0xbf24b74e	-0.643422
128	0x3ed3f686	0.4139902
129	0x3fc40379	1.531356
130	0x3eee7180	0.4657097
131	0x3dbae6cc	0.09126052
132	0xbfdf0a0f	-1.7424945
133	0xbd46ebbb	-0.048564654
134	0x3fa1da83	1.264481
135	0x3e99d827	0.30047724
136	0xbd9468d5	-0.072465576
137	0x3cd47147	0.025932921
138	0x3f86ed88	1.0541239
139	0xbdc37a36	-0.09544794
140	0x3da5fa2c	0.08104357
141	0x3f324b7d	0.69646436
142	0x3df49a24	0.119434625
143	0xbd35ecdd	-0.044415344
144	0x3e3f5217	0.18683659
145	0x3f2c542e	0.6731595
146	0xbedc701f	-0.43054292
147	0xbe3a7dca	-0.18212047
148	0xbd8d92eb	-0.06912788
149	0xbdb2eeab	-0.087369286

linear.2.bias f4 [3]
0	0xbf869ff9	-1.051757
1	0xbe33f7e6	-0.17575034
2	0x3f3686cb	0.7129943
